…
    model.add(layers.MaxPooling1D(pool_size=2, padding='same'))
    model.add(layers.Flatten())
    model.add(layers.Dropout(0.3))
    model.add(layers.Dense(512, activation='relu'))
    model.add(layers.Dropout(0.3))
    model.add(layers.Dense(num_classes, activation='sigmoid'))  # Đầu ra cho 5 nhãn

    return model

CNN_model1 = CNN(input_size1)
CNN_model1.summary()
Model: "sequential"
┏━━━━━━━━━━━━━━━━━━━━━━━━━━━━━━━━━┳━━━━━━━━━━━━━━━━━━━━━━━━┳━━━━━━━━━━━━━━━┓
┃ Layer (type)                    ┃ Output Shape           ┃       Param # ┃
┡━━━━━━━━━━━━━━━━━━━━━━━━━━━━━━━━━╇━━━━━━━━━━━━━━━━━━━━━━━━╇━━━━━━━━━━━━━━━┩
│ conv1d (Conv1D)                 │ (None, 79, 16)         │            64 │
├─────────────────────────────────┼────────────────────────┼───────────────┤
│ dropout (Dropout)               │ (None, 79, 16)         │             0 │
├─────────────────────────────────┼────────────────────────┼───────────────┤
│ batch_normalization             │ (None, 79, 16)         │            64 │
│ (BatchNormalization)            │                        │               │
├─────────────────────────────────┼────────────────────────┼───────────────┤
│ max_pooling1d (MaxPooling1D)    │ (None, 40, 16)         │             0 │
├─────────────────────────────────┼────────────────────────┼───────────────┤
│ conv1d_1 (Conv1D)               │ (None, 40, 32)         │         1,568 │
├─────────────────────────────────┼────────────────────────┼───────────────┤
│ dropout_1 (Dropout)             │ (None, 40, 32)         │             0 │
├─────────────────────────────────┼────────────────────────┼───────────────┤
│ batch_normalization_1           │ (None, 40, 32)         │           128 │
│ (BatchNormalization)            │                        │               │
├─────────────────────────────────┼────────────────────────┼───────────────┤
│ max_pooling1d_1 (MaxPooling1D)  │ (None, 20, 32)         │             0 │
├─────────────────────────────────┼────────────────────────┼───────────────┤
│ conv1d_2 (Conv1D)               │ (None, 20, 64)         │         6,208 │
├─────────────────────────────────┼────────────────────────┼───────────────┤
│ dropout_2 (Dropout)             │ (None, 20, 64)         │             0 │
├─────────────────────────────────┼────────────────────────┼───────────────┤
│ batch_normalization_2           │ (None, 20, 64)         │           256 │
│ (BatchNormalization)            │                        │               │
├─────────────────────────────────┼────────────────────────┼───────────────┤
│ max_pooling1d_2 (MaxPooling1D)  │ (None, 10, 64)         │             0 │
├─────────────────────────────────┼────────────────────────┼───────────────┤
│ conv1d_3 (Conv1D)               │ (None, 10, 128)        │        24,704 │
├─────────────────────────────────┼────────────────────────┼───────────────┤
│ dropout_3 (Dropout)             │ (None, 10, 128)        │             0 │
├─────────────────────────────────┼────────────────────────┼───────────────┤
│ batch_normalization_3           │ (None, 10, 128)        │           512 │
│ (BatchNormalization)            │                        │               │
├─────────────────────────────────┼────────────────────────┼───────────────┤
│ max_pooling1d_3 (MaxPooling1D)  │ (None, 5, 128)         │             0 │
├─────────────────────────────────┼────────────────────────┼───────────────┤
│ conv1d_4 (Conv1D)               │ (None, 5, 256)         │        98,560 │
├─────────────────────────────────┼────────────────────────┼───────────────┤
│ dropout_4 (Dropout)             │ (None, 5, 256)         │             0 │
├─────────────────────────────────┼────────────────────────┼───────────────┤
│ batch_normalization_4           │ (None, 5, 256)         │         1,024 │
│ (BatchNormalization)            │                        │               │
├─────────────────────────────────┼────────────────────────┼───────────────┤
│ max_pooling1d_4 (MaxPooling1D)  │ (None, 3, 256)         │             0 │
├─────────────────────────────────┼────────────────────────┼───────────────┤
│ flatten (Flatten)               │ (None, 768)            │             0 │
├─────────────────────────────────┼────────────────────────┼───────────────┤
│ dropout_5 (Dropout)             │ (None, 768)            │             0 │
├─────────────────────────────────┼────────────────────────┼───────────────┤
│ dense (Dense)                   │ (None, 512)            │       393,728 │
├─────────────────────────────────┼────────────────────────┼───────────────┤
│ dropout_6 (Dropout)             │ (None, 512)            │             0 │
├─────────────────────────────────┼────────────────────────┼───────────────┤
│ dense_1 (Dense)                 │ (None, 5)              │         2,565 │
└─────────────────────────────────┴────────────────────────┴───────────────┘
 Total params: 529,381 (2.02 MB)
 Trainable params: 528,389 (2.02 MB)
 Non-trainable params: 992 (3.88 KB)
 
 
# Biên dịch mô hình với learning rate thấp hơn
optimizer = Adam(learning_rate=0.0001)
CNN_model1.compile(optimizer=optimizer, loss='binary_crossentropy', metrics=['binary_accuracy'])

# Kiểm tra dữ liệu
print("Kiểm tra NaN/Inf trong X_train1:", np.any(np.isnan(X_train1)), np.any(np.isinf(X_train1)))
…
