…
    model.add(layers.BatchNormalization())
    model.add(layers.Flatten())
    model.add(layers.Dense(64, activation='relu', kernel_regularizer=l2(0.01)))
    model.add(layers.Dropout(0.3))
    model.add(layers.Dense(num_classes, activation='softmax'))

    return model


CNN_model2 = CNN2(input_size2)
CNN_model2.summary()

Model: "sequential"
┏━━━━━━━━━━━━━━━━━━━━━━━━━━━━━━━━━┳━━━━━━━━━━━━━━━━━━━━━━━━┳━━━━━━━━━━━━━━━┓
┃ Layer (type)                    ┃ Output Shape           ┃       Param # ┃
┡━━━━━━━━━━━━━━━━━━━━━━━━━━━━━━━━━╇━━━━━━━━━━━━━━━━━━━━━━━━╇━━━━━━━━━━━━━━━┩
│ conv1d (Conv1D)                 │ (None, 300, 16)        │            64 │
├─────────────────────────────────┼────────────────────────┼───────────────┤
│ dropout (Dropout)               │ (None, 300, 16)        │             0 │
├─────────────────────────────────┼────────────────────────┼───────────────┤
│ batch_normalization             │ (None, 300, 16)        │            64 │
│ (BatchNormalization)            │                        │               │
├─────────────────────────────────┼────────────────────────┼───────────────┤
│ max_pooling1d (MaxPooling1D)    │ (None, 150, 16)        │             0 │
├─────────────────────────────────┼────────────────────────┼───────────────┤
│ conv1d_1 (Conv1D)               │ (None, 150, 32)        │         1,568 │
├─────────────────────────────────┼────────────────────────┼───────────────┤
│ dropout_1 (Dropout)             │ (None, 150, 32)        │             0 │
├─────────────────────────────────┼────────────────────────┼───────────────┤
│ batch_normalization_1           │ (None, 150, 32)        │           128 │
│ (BatchNormalization)            │                        │               │
├─────────────────────────────────┼────────────────────────┼───────────────┤
│ max_pooling1d_1 (MaxPooling1D)  │ (None, 75, 32)         │             0 │
├─────────────────────────────────┼────────────────────────┼───────────────┤
│ conv1d_2 (Conv1D)               │ (None, 75, 64)         │         6,208 │
├─────────────────────────────────┼────────────────────────┼───────────────┤
│ dropout_2 (Dropout)             │ (None, 75, 64)         │             0 │
├─────────────────────────────────┼────────────────────────┼───────────────┤
│ batch_normalization_2           │ (None, 75, 64)         │           256 │
│ (BatchNormalization)            │                        │               │
├─────────────────────────────────┼────────────────────────┼───────────────┤
│ flatten (Flatten)               │ (None, 4800)           │             0 │
├─────────────────────────────────┼────────────────────────┼───────────────┤
│ dense (Dense)                   │ (None, 64)             │       307,264 │
├─────────────────────────────────┼────────────────────────┼───────────────┤
│ dropout_3 (Dropout)             │ (None, 64)             │             0 │
├─────────────────────────────────┼────────────────────────┼───────────────┤
│ dense_1 (Dense)                 │ (None, 4)              │           260 │
└─────────────────────────────────┴────────────────────────┴───────────────┘
 Total params: 315,812 (1.20 MB)
 Trainable params: 315,588 (1.20 MB)
 Non-trainable params: 224 (896.00 B)
 
CNN_model2.compile(
    optimizer=keras.optimizers.Adam(learning_rate=0.0005),
    loss='categorical_crossentropy',
    metrics=['accuracy', 'Precision', 'Recall']
)

# Kiểm tra phân bố nhãn
y_labels = np.argmax(Y_train2, axis=1)
…
